lab3/src/best_model_df_07.pt (torch, 6252 bytes, 6 tensors)

shared_net.0.weight f4 [16, 4]
-0.46362895 -0.49883446 -0.19047023 -0.5256492 0.0065117404 -0.5201873 0.2933914 0.19838902
0.08001967 0.46976393 -0.057817467 0.33893093 -0.38331404 -0.016546195 -0.46607438 0.0016481763
-0.36525515 0.5658214 0.31345347 0.4373148 0.1870916 -0.40113068 0.4622577 -0.54524004
-0.28237042 -0.36977366 -0.17680655 0.06000823 -0.41665348 -0.27439243 -0.26368538 0.36327472
-0.38297772 -0.38607642 -0.4537134 -0.21097028 -0.0981456 -0.5993305 -0.20732902 -0.045566816
0.10645663 -0.16044857 -0.039508704 -0.36821145 0.21975215 -0.028764507 -0.36902586 -0.067975596
-0.02481689 0.34250718 0.2907681 -0.26791996 -0.109657586 0.5436332 0.2906503 0.17978193
-0.14814153 0.33135617 0.23308064 -0.265303 0.31067532 0.13978724 -0.39857095 -0.16209479
00000000: c660 edbe 3b67 ffbe a10a 43be f290 06bf
00000010: 7060 d53b ff2a 05bf 6637 963e 7e26 4b3e
00000020: 5ae1 a33d e684 f03e 02d2 6cbd 5b88 ad3e
00000030: bd41 c4be e38b 87bc 4da1 eebe 9f07 d83a
00000040: b902 bbbe acd9 103f f97c a03e bae7 df3e
00000050: f194 3f3e 0061 cdbe 0bad ec3e da94 0bbf
00000060: db92 90be f952 bdbe c70c 35be 31cb 753d
00000070: 9b53 d5be 2a7d 8cbe c501 87be 25ff b93e
00000080: a815 c4be cfab c5be 1f4d e8be 9808 58be
00000090: 8f00 c9bd b96d 19bf 0f4e 54be 45a4 3abd
000000a0: ef05 da3d a14c 24be e1d3 21bd 3686 bcbe
000000b0: b506 613e 8ba3 ebbc f5f0 bcbe ca36 8bbd
000000c0: ca4c cbbc 1a5d af3e 8edf 943e ce2c 89be
000000d0: 2894 e0bd 8c2b 0b3f 1ed0 943e c118 383e
000000e0: 6ab2 17be 84a7 a93e b1ac 6e3e cbd5 87be
000000f0: d610 9f3e 6324 0f3e 7e11 ccbe 2dfc 25be

shared_net.0.bias f4 [16]
-0.35232878 -0.4065596 0.022458129 -0.35889888 0.2643403 0.21640268 0.09568083 0.40312433
-0.21109663 -0.012338366 0.28447995 0.18910606 0.05019886 0.40770718 0.11197761 0.34491065
00000000: 7064 b4be 9428 d0be 1cfa b73c 98c1 b7be
00000010: 9d57 873e aa98 5d3e 50f4 c33d 5066 ce3e
00000020: b729 58be dc26 4abc 5ba7 913e 05a5 413e
00000030: 529d 4d3d ffbe d03e 8454 e53d 2198 b03e

shared_net.2.weight f4 [32, 16]
-0.21334061 -0.19777521 -0.20518394 0.031734746 0.21380472 -0.23676251 0.09468119 -0.22468337
-0.15817662 -0.092889264 -0.12408102 0.056318536 -0.22279358 0.23510718 0.020134442 0.06785955
-0.1723627 0.1221097 -0.069801204 -0.1397312 0.043953553 0.11839017 0.031777866 -0.08042859
0.038157996 -0.089317545 -0.063902736 -0.07764788 0.15815394 -0.16321352 0.120730236 0.14561568
-0.12075468 -0.19211715 -0.23240124 -0.22255103 0.15656687 0.27299654 -0.056241486 0.20352446
0.103377834 -0.21918485 -0.18325362 -0.11775311 -0.20662937 -0.13337503 0.106387936 0.00344367
-0.09865093 0.0012083976 0.29512522 -0.0052055414 0.18514805 -0.10655091 -0.16172859 0.08531812
0.067665845 0.11015812 -0.26138684 -0.022851719 -0.27354062 0.037646044 -0.01642218 0.08850703
-0.03216966 -0.027862368 -0.012286985 -0.24244449 0.06086716 0.29833716 -0.20434596 0.20473562
0.08365466 0.27665064 0.26040328 -0.22041649 0.23097202 -0.023795865 0.10269031 -0.09206224
-0.24557796 0.027018856 0.13951874 0.1339625 -0.15377194 -0.2917987 0.13566683 -0.021485066
-0.037595376 -0.09898668 -0.039336838 0.034233894 -0.26704544 0.11114626 -0.0064787474 0.10445102
-0.16682006 0.16764887 0.20307368 -0.13662699 0.26037434 0.012892606 0.23456286 0.25189203
0.0038285456 0.0133911865 0.071042776 0.17021556 -0.24068049 0.027756652 0.22903734 -0.16553004
-0.16242751 0.038106654 0.13487206 0.15083984 0.042401258 0.019637233 -0.104085065 0.24782087
-0.1766393 0.14505778 0.09817441 0.20578904 0.1915036 -0.07943444 0.14807358 -0.19783539
0.13271056 -0.16884843 -0.12538542 -0.17860277 0.286968 0.04650705 -0.14891502 -0.15523815
-0.010229147 -0.06831702 0.054414034 0.17168431 -0.17945811 -0.19780236 0.0096715195 0.17845042
0.10641635 0.0030054545 0.004839274 0.09195295 0.2266553 -0.2668819 -0.0067962953 0.2155726
0.16138463 0.1967535 0.053387098 0.23573673 -0.27960548 0.063229755 -0.00010674444 0.15767461
0.05684419 0.14578892 -0.24566592 -0.042336136 0.08136153 0.1849651 0.060398426 0.15999104
-0.07574138 -0.0046725203 0.2612498 0.18008237 0.19192827 -0.2118673 0.015665645 -0.19951019
0.2777929 0.20629913 0.069355205 -0.15607986 -0.20177624 -0.11107193 0.06712038 0.16804254
0.009123243 -0.20469753 -0.017361438 0.026196994 0.05364834 0.10726076 0.10860293 -0.06663108
-0.12318763 -0.0023765631 -0.19025503 -0.20428096 -0.2024347 -0.17212397 0.0032926667 -0.10152033
-0.1008858 0.07731078 0.024400989 -0.17007165 0.15057655 -0.2671125 0.016939737 0.19450141
0.2594852 0.14054057 -0.12052852 0.05538989 -0.23725319 0.044104487 0.18774305 -0.14299944
-0.18770799 0.23563099 0.13678117 0.16637167 -0.041336443 -0.13496237 -0.009259916 -0.07573199
-0.019138023 -0.06387296 -0.0075243693 -0.17793256 -0.03394316 -0.2126394 0.04093112 0.18162766
0.07538063 0.0144696385 -0.21006075 -0.024565669 -0.049684912 0.21223311 0.016301062 0.15242417
0.16576399 -0.0436468 -0.14398758 -0.19978377 0.25264066 -0.1379696 0.032842662 0.12576286
-0.05108773 -0.2588779 -0.056781717 0.062348228 -0.13735396 0.04941648 0.021809984 0.10618751
00000000: f675 5abe 9685 4abe bd1b 52be 4bfc 013d
00000010: a0ef 5a3e df71 72be 36e8 c13d 6613 66be
00000020: 0df9 21be ba3c bebd 311e febd 44ae 663d
00000030: 0024 64be f0bf 703e fcf0 a43c f3f9 8a3d
00000040: d97f 30be a714 fa3d eff3 8ebd b215 0fbe
00000050: a408 343d 8c76 f23d 8229 023d bfb7 a4bd
00000060: 8f4b 1c3d 1eec b6bd 70df 82bd da05 9fbd
00000070: 1bf3 213e 7221 27be 6a41 f73d 471c 153e
00000080: 3b4e f7bd 5cba 44be 97fa 6dbe 6be4 63be
00000090: 1153 203e 34c6 8b3e 795d 66bd b768 503e
000000a0: c2b7 d33d fe71 60be d6a6 3bbe 8b28 f1bd
000000b0: a696 53be 7793 08be ebe1 d93d 32af 613b
000000c0: 8009 cabd 1863 9e3a a71a 973e 3f93 aabb
000000d0: 7397 3d3e 5d37 dabd 2e9c 25be 44bb ae3d
000000e0: 6494 8a3d 959a e13d 7fd4 85be 8733 bbbc
000000f0: 840d 8cbe bd32 1a3d cf87 86bc 2c43 b53d
00000100: 55c4 03bd 9f3f e4bc 5a4f 49bc 5e43 78be
00000110: d84f 793d a6bf 983e 1140 51be 37a6 513e
00000120: 2253 ab3d 27a5 8d3e 9453 853e dcb4 61be
00000130: ee83 6c3e 8cef c2bc 4c4f d23d 218b bcbd
00000140: ca78 7bbe a656 dd3c 00de 0e3e 772d 093e
00000150: 6476 1dbe a466 95be 3fec 0a3e 7301 b0bc
00000160: 9cfd 19bd 87b9 cabd aa1f 21bd d738 0c3d
00000170: 2eba 88be a6a0 e33d ac4b d4bb 6bea d53d
00000180: e1d2 2abe 25ac 2b3e 8cf2 4f3e f2e7 0bbe
00000190: c94f 853e 823b 533c 3f31 703e fef7 803e
000001a0: 56e8 7a3b b566 5b3c e07e 913d fd4c 2e3e
000001b0: f274 76be eb61 e33c c488 6a3e b580 29be
000001c0: 6653 26be b915 1c3d e71b 0a3e c275 1a3e
000001d0: f1ac 2d3d 43de a03c 8d2a d5bd c1c4 7d3e
000001e0: efe0 34be 078a 143e aa0f c93d 5dba 523e
000001f0: 8519 443e 86ae a2bd 9aa0 173e 5c95 4abe
00000200: 47e5 073e 9ae6 2cbe 0965 00be a5e3 36be
00000210: 78ed 923e 2d7e 3e3d 2e7d 18be c0f6 1ebe
00000220: 2798 27bc cbe9 8bbd 40e1 5e3d 03ce 2f3e
00000230: dec3 37be b48c 4abe 4b75 1e3c b5bb 363e
00000240: d1f0 d93d 29f7 443b c692 9e3b d451 bc3d
00000250: 5418 683e bfa4 88be 75b3 debb 10bf 5c3e
00000260: 0342 253e c079 493e 6eac 5a3d f864 713e
00000270: 7328 8fbe 9a7e 813d fcdb dfb8 7475 213e
00000280: 74d5 683d b149 153e d98f 7bbe a868 2dbd
00000290: e0a0 a63d 7e67 3d3e 5764 773d b1d4 233e
000002a0: 4c1e 9bbd f11b 99bb 89c2 853e 8367 383e
000002b0: d888 443e bef3 58be 3d55 803c 664c 4cbe
000002c0: df3a 8e3e 1440 533e 1a0a 8e3d 66d3 1fbe
000002d0: 6e9e 4ebe ae79 e3bd 6976 893d 5813 2c3e
000002e0: a879 153c 3b9c 51be 9339 8ebc 149b d63c
000002f0: 5dbe 5b3d 88ab db3d 376b de3d e075 88bd
00000300: cc49 fcbd 1dc0 1bbb 37d2 42be 072f 51be
00000310: 0b4b 4fbe 4441 30be c8c9 573b e4e9 cfbd
00000320: 379d cebd 1d55 9e3d 95e4 c73c 4327 2ebe
00000330: bd30 1a3e f8c2 88be 34c5 8a3c 612b 473e
00000340: 3edb 843e dee9 0f3e a8d7 f6bd 82e0 623d
00000350: 80f2 72be e8a6 343d b73f 403e 726e 12be
00000360: 8636 40be 4049 713e 5d10 0c3e 565d 2a3e
00000370: 6750 29bd 9333 0abe e7b6 17bc 6019 9bbd
00000380: 58c7 9cbc d4cf 82bd fc8e f6bb f433 36be
00000390: fc07 0bbd 25be 59be 64a7 273d 9afc 393e
000003a0: 2961 9a3d 1012 6d3c 2a1a 57be f13d c9bc
000003b0: 6882 4bbd a353 593e ce89 853c 1515 1c3e
000003c0: 09be 293e fdc6 32bd 7b71 13be 1e94 4cbe
000003d0: 1e5a 813e e747 0dbe 0786 063d fbc7 003e
000003e0: 5e41 51bd a58b 84be f293 68bd db60 7f3d
000003f0: 84a6 0cbe ef68 4a3d daaa b23c d678 d93d

shared_net.2.bias f4 [32]
0.18882161 0.03644913 0.120449044 -0.16135396 0.11025806 0.13584866 -0.0042468654 0.23252344
0.052936886 0.15193528 0.02359038 0.03769817 0.03611573 0.20047484 0.115035586 -0.12574978
0.051507324 0.13978286 -0.2048226 -0.10582094 0.07464754 -0.037290875 -0.08879455 -0.14275432
0.09540055 0.16955794 0.24313168 -0.24481821 0.18468794 -0.15318488 0.18636145 0.028679077
00000000: 745a 413e af4b 153d fdad f63d f939 25be
00000010: face e13d e91b 0b3e 4a29 8bbb a01a 6e3e
00000020: 59d4 583d ec94 1b3e 9d40 c13c 6569 1a3d
00000030: 16ee 133d 4749 4d3e c797 eb3d 8dc4 00be
00000040: 58f9 523d 3d23 0f3e 04bd 51be a6b8 d8bd
00000050: cfe0 983d 51be 18bd ebd9 b5bd 302e 12be
00000060: 5d61 c33d 99a0 2d3e 83f7 783e a0b1 7abe
00000070: d61e 3d3e 7fdc 1cbe 89d5 3e3e 62f0 ea3c

policy_mean_net.0.weight f4 [1, 32]
0.06072464 -0.046467867 -0.111952424 0.1640366 -0.09485655 0.20848146 0.0665498 0.11421028
0.024330141 0.065555654 -0.08032485 -0.114767544 -0.16648425 -0.22160947 0.19995104 0.17747343
0.19926295 0.009069607 0.044547927 0.123139106 -0.088608466 0.14334981 -0.16528171 -0.11158481
0.0880039 0.11743528 0.026199589 0.14703643 0.048608012 -0.00074050826 -0.030573212 0.035290685
00000000: 66ba 783d 1755 3ebd 5047 e5bd 36f9 273e
00000010: 2744 c2bd 2a7c 553e 434b 883d 14e7 e93d
00000020: 0150 c73c 0b42 863d 5b81 a4bd 3f0b ebbd
00000030: d97a 2abe 98ed 62be f7bf 4c3e 98bb 353e
00000040: 960b 4c3e b098 143c e377 363d 5b30 fc3d
00000050: 5b78 b5bd 4bca 123e 9c3f 29be 9486 e4bd
00000060: 643b b43d e881 f03d 85a0 d63c b890 163e
00000070: 3219 473d ab1e 42ba ac74 fabc f78c 103d

policy_stddev_net.0.weight f4 [1, 32]
0.1430227 -0.16907291 -0.05308773 -0.07211893 -0.0054077944 0.019346502 -0.09521207 0.13156293
-0.072498545 0.008538335 -0.11709727 0.02118883 -0.009238392 0.054712187 -0.12932302 -0.14953047
-0.121616155 -0.14046846 -0.006163205 0.10883487 0.119325876 -0.08131278 0.081948884 -0.15613896
0.12025814 -0.015362559 -0.046573393 0.048745804 0.1198202 -0.13722733 0.111027434 0.16840394
00000000: 8b74 123e 7321 2dbe 8572 59bd 17b3 93bd
00000010: de33 b1bb 8e7c 9e3c 8cfe c2bd 6fb8 063e
00000020: 1e7a 94bd 5fe4 0b3c b2d0 efbd 3294 ad3c
00000030: a05c 17bc e319 603d 416d 04be 841e 19be
00000040: e411 f9bd f7d6 0fbe b6f4 c9bb d1e4 de3d
00000050: 2061 f43d 5187 a6bd d1d4 a73d e4e2 1fbe
00000060: e649 f63d 3eb3 7bbc bec3 3ebd aea9 473d
00000070: 4b64 f53d 5285 0cbe 5a62 e33d 1572 2c3e
