lab3/src/best_model_df_05.pt (torch, 6252 bytes, 6 tensors)

shared_net.0.weight f4 [16, 4]
00000000: 0d6c ebbe eb8b 16bf c9d4 62be 97b4 11bf
00000010: 0d2c 8e3b d242 18bf b3e5 8f3e f72a 273e
00000020: f09b a03d 261b 103f d3e5 afbc a3fd c23e
00000030: 4f24 b8be 0d5d d03c d3bf debe 4972 ab3c
00000040: ae6f b6be 981e 253f 4b40 ad3e 058e f43e
00000050: 68e2 2d3e 6537 f5be 3cc1 d63e fc12 17bf
00000060: f3e2 96be 3b50 e5be 194a 50be 23db f73c
00000070: 7c01 d2be c2c0 4cbe 1ee5 79be 01f4 ce3e
00000080: 4e46 c7be 0c15 01bf 86eb f1be 8d00 82be
00000090: bc24 cabd 11f9 30bf 6323 72be 380b b7bd
000000a0: 03e6 d63d 437e 7abe a16f 95bd 8993 cfbe
000000b0: ded9 5b3e 5066 dfbd 44ea c3be 182c c8bd
000000c0: 30b1 22bd f4fd 8a3e 387e 833e 79d1 9cbe
000000d0: 3d0c c3bd b93f 213f cdeb a33e 595a 643e
000000e0: a2a4 22be 712b 863e e015 4f3e 4e18 99be
000000f0: 0a62 a03e 99d5 1d3e e07f c9be e0f6 1ebe
-0.45980874 -0.5880725 -0.22151484 -0.56916183 0.0043387474 -0.5947696 0.28104934 0.16324984
0.07842243 0.56291425 -0.021471893 0.38084134 -0.359652 0.025434995 -0.43505725 0.020928519
-0.3563208 0.6449981 0.33838114 0.47764602 0.16980898 -0.47893825 0.419443 -0.5901334
-0.29470024 -0.44787773 -0.20340766 0.03025586 -0.41016757 -0.19995406 -0.24403808 0.40420535
-0.38920826 -0.5042274 -0.47250003 -0.25391045 -0.09870288 -0.69130045 -0.23646311 -0.08937687
0.1049309 -0.24462228 -0.07296682 -0.40542248 0.21469828 -0.109081864 -0.38264668 -0.09774035
-0.03971976 0.27146876 0.25682235 -0.30628565 -0.09523819 0.6298786 0.3201584 0.2230009
-0.15883115 0.26205018 0.20223188 -0.29901356 0.31324798 0.15413512 -0.39355373 -0.15523863

shared_net.0.bias f4 [16]
00000000: 9e2f b1be eefe c8be f1c1 ba3c 7f24 cabe
00000010: 777c 823e c5cc 633e 0769 ce3d ab67 ca3e
00000020: 9af7 41be 3dd3 e6bb ab21 8f3e ce8e 5d3e
00000030: db4f 6b3d d715 c33e 3a02 123e f42f b93e
-0.34606642 -0.39256996 0.022797557 -0.3948097 0.25485584 0.22246082 0.10078626 0.39532217
-0.18942109 -0.0070442245 0.27955374 0.21636507 0.057449203 0.381026 0.14258662 0.36169398

shared_net.2.weight f4 [32, 16]
00000000: 3a6e 5ebe bfb0 23be e915 2ebe ac8a 583d
00000010: 28a3 653e a75f 88be 3c48 6b3d 1ad3 7fbe
00000020: 6150 2dbe 0035 13be 331c 2fbe 206d f63b
00000030: e7b8 6ebe 788e 633e 4e09 45bb 82b5 bf3c
00000040: 7a08 38be a59c b33d bc31 aebd c05b 25be
00000050: 076c 4a3d f0d2 0e3e 6acf 773d c981 63bd
00000060: 85f1 193d 3d6f 73bd 3d96 d8bc db60 23bd
00000070: 599d 293e 87c1 13be ea04 103e 4cc5 3a3e
00000080: 5366 cdbd d354 62be a758 8bbe 90f6 69be
00000090: 4e8c 023e 8506 983e 34b1 b0bc ba4b 5d3e
000000a0: df76 0a3e 0601 1ebe 3388 0bbe 3aef 95bd
000000b0: b743 50be 3509 0fbe 759f f73d 1ec1 2b3d
000000c0: dbb3 0cbe bd34 6a3b bdf7 ae3e 6c32 bfbc
000000d0: a10e 713e a12c f1bd 8bba 3bbe daab be3d
000000e0: 0370 9f3c 61a7 3c3d af98 91be cc4c 3cbd
000000f0: c72f 89be 30cb 8b3d e25c 65bc 68e1 993d
00000100: 0133 33bb 82cb 3cbd 2fd3 5fbd c2c2 6fbe
00000110: 27ba b03c 35dd a13e b338 30be acaa 563e
00000120: 6b9e 023e 7edd b13e 3bb8 993e 287e 3bbe
00000130: 05e2 683e 3749 32bd 7413 dd3d db36 81bd
00000140: 3dd6 8ebe aabd 3e3d b4ae 433e 1e6a 063e
00000150: 9713 dfbd b171 a1be d17c d13d f4ca cebc
00000160: 99b7 a2bd c56f 2bbe 255d a2bd 7dbc d1bb
00000170: 041b 8abe d032 043e 11f8 90bc 15ef 953d
00000180: ec8a 50be baa7 203e 8a08 733e ea26 1ebe
00000190: 6fae 9d3e 72da 0f3c 63ad 6b3e 0d4e 8a3e
000001a0: e36c 08bd 6b08 eebc 3c5a 873d 291c 2a3e
000001b0: 8e95 73be 6229 6d3d 4bfb 6f3e f59b 26be
000001c0: bc70 35be 1031 933d d924 353e d3cf 293e
000001d0: c29a 853d 2409 33bc 95af 0ebe 7b27 6c3e
000001e0: 78a9 4bbe 0c2a ac3d 169b 443d ef4c 223e
000001f0: 657c 3a3e 3b3f a8bd b392 013e d5d6 75be
00000200: 8a7e dd3d 04c9 47be e2f1 e9bd 2586 4ebe
00000210: 3a9d a13e e91d 5e3d 49de 09be 2043 05be
00000220: 9204 04bd 7478 a2bd 2ce1 933d 1a05 443e
00000230: 6abc 32be 9bd2 2dbe 0613 bf3c 1c5b 4e3e
00000240: 65ac 923d c034 943c 3372 6b3d 9947 b93d
00000250: 8a2f 8c3e cafb 95be ff99 14bd 6b5a 5f3e
00000260: 8450 f93d 8d14 033e 4364 873c eec3 4b3e
00000270: 61b2 92be bc8e a83d cfe3 51bc 13e9 053e
00000280: 5587 833d 6b2b e43d 93bc 8fbe 50aa 6dbd
00000290: d329 893d ae6c 593e 32b4 c53d 0657 393e
000002a0: 94f7 73bd 98d9 503d 705f 9e3e f825 683e
000002b0: c305 4b3e e201 52be e4f2 0f3d 62a0 21be
000002c0: 2365 a03e 919e 463e b059 b43c ab07 18be
000002d0: ff1a 7fbe 2e96 bbbd d1ee c03d f4aa 293e
000002e0: 6c3c 583d f0b8 0bbe fd09 8c3c 700f 723d
000002f0: c666 5f3d 35e3 aa3d 3c07 ec3d b93d 2ebd
00000300: e485 b8bd 45ea acbc c36f 74be 16e5 4cbe
00000310: f4cc 7cbe 8ca9 19be b896 113d 872a cabd
00000320: ebaf 6dbd 1619 183e 62aa 843d fcfc 05be
00000330: 4e83 1b3e cec6 92be 9df9 d63c 2770 663e
00000340: da0e 973e e1cd 063e 1a50 2abe a7ae 843d
00000350: 81e3 91be 9df8 783d 7de9 573e b45a 17be
00000360: 4ad6 13be 7688 993e 3d22 2a3e 6372 473e
00000370: 78d3 2bbd 773f 23be 2707 afbb 8fe0 63bd
00000380: e87b 69bd 9795 80bd d279 0a3d 3dbd 42be
00000390: 61c1 813c 5b06 66be 1d68 cc3c 7ec1 453e
000003a0: e2b9 0b3d 00aa 26bd 594a 6abe 60aa 32bd
000003b0: 476d 4abd c7fe 743e 9653 733c bae4 103e
000003c0: 044b 013e cfba 3fbd a1c2 cfbd 46f4 5cbe
000003d0: e0ab 9b3e 830d 18be 7757 a83c cf71 0f3e
000003e0: 3ec7 c0bd 37f8 a0be b5e9 94bd d32f 423d
000003f0: 7d5c 0bbe db9a a33d 3e62 bd3c fc9a cb3d
-0.21721736 -0.15985392 -0.17000546 0.052866623 0.2242552 -0.26635477 0.057441935 -0.24982873
-0.16925193 -0.14375687 -0.17100601 0.007520333 -0.23312722 0.22222316 -0.003006536 0.02340198
-0.17971984 0.08770112 -0.0850558 -0.16148281 0.04941943 0.13947654 0.06050054 -0.055543695
0.037583847 -0.059432257 -0.026438827 -0.03988729 0.1656393 -0.14429294 0.14064375 0.18239325
-0.100292824 -0.2210267 -0.27216074 -0.22847962 0.12748834 0.29692474 -0.021568872 0.21610919
0.13521908 -0.15430078 -0.13626175 -0.073210195 -0.20338331 -0.13968356 0.12090961 0.041932218
-0.13740484 0.0035737 0.34173384 -0.023339473 0.23540737 -0.117760904 -0.18332879 0.09310122
0.019462591 0.046058062 -0.284368 -0.045971677 -0.26794264 0.06825864 -0.013999196 0.07513696
-0.0027343633 -0.046092518 -0.05464476 -0.23414138 0.02157314 0.3161408 -0.17209129 0.20963544
0.12755744 0.34739298 0.3002337 -0.18309844 0.2274247 -0.043526854 0.10794726 -0.06309291
-0.27897826 0.046567596 0.19109613 0.13126418 -0.10892408 -0.31532052 0.10228885 -0.02524326
-0.07945175 -0.16741855 -0.07927922 -0.0064006434 -0.26973736 0.12910008 -0.017696412 0.07320992
-0.20365494 0.15688983 0.23733726 -0.15444532 0.30797145 0.008780109 0.2301536 0.27012673
-0.033306967 -0.029056748 0.06609008 0.16612305 -0.2378752 0.057900794 0.23435704 -0.1627043
-0.17718786 0.07187092 0.17689838 0.16583185 0.06523658 -0.010927472 -0.13934167 0.23061936
-0.19888866 0.08406457 0.047999464 0.1584966 0.18211515 -0.08215185 0.12653618 -0.24007733
0.10815151 -0.19510275 -0.114230886 -0.2016836 0.31565267 0.054227743 -0.13463701 -0.13013887
-0.03223092 -0.07933131 0.072206825 0.19142571 -0.17454687 -0.16974871 0.0233245 0.20151943
0.07161788 0.01809156 0.057481956 0.09046859 0.2738002 -0.29293662 -0.036279675 0.21811835
0.1217356 0.12800808 0.0165273 0.1989896 -0.28651717 0.082303494 -0.012810661 0.13077192
0.06422297 0.11141094 -0.28073558 -0.05802375 0.066974305 0.21232864 0.0965351 0.18099603
-0.05956228 0.050988764 0.30932188 0.22670734 0.19826417 -0.2050853 0.035143748 -0.15783837
0.3132716 0.19396426 0.022015423 -0.14846675 -0.24912642 -0.09159504 0.094205506 0.1656912
0.052791998 -0.13644767 0.017094607 0.059096754 0.05454137 0.083441176 0.11524817 -0.042539332
-0.090099126 -0.021107802 -0.23870759 -0.20009264 -0.24687558 -0.15006083 0.035544127 -0.09871393
-0.058029097 0.1485332 0.064778104 -0.13084787 0.15186808 -0.286673 0.026242072 0.2250372
0.29503518 0.13164474 -0.16632119 0.06478625 -0.28493884 0.06078397 0.21085162 -0.14780694
-0.14437214 0.29986924 0.16614623 0.19477229 -0.04194972 -0.15942179 -0.005341429 -0.055634078
-0.05700293 -0.06278532 0.033807583 -0.19017501 0.01583928 -0.22463362 0.024951989 0.19312093
0.03411282 -0.04068947 -0.22879924 -0.043619514 -0.04942062 0.23925315 0.014851471 0.14149752
0.12626272 -0.046809014 -0.101445444 -0.21577558 0.30404568 -0.14848904 0.020549519 0.14008258
-0.094130024 -0.31439373 -0.072711386 0.04740889 -0.136095 0.07988521 0.023118135 0.0994167

shared_net.2.bias f4 [32]
00000000: ef1a 1e3e 3b69 8b3d 3e06 133e 0fe1 21be
00000010: 1640 f93d d4c5 fa3d 49ad 0d3c 9e1f 503e
00000020: 8c80 a13d 457a 113e 7eb4 5b3d 5501 373d
00000030: 5b26 483d d068 513e 344d f13d 2163 f3bd
00000040: b536 6b3d e4d2 2a3e dfa8 59be 23f3 07be
00000050: b7d6 7b3d 80ea 0cbd 3f31 b9bd 0709 edbd
00000060: 11b4 853d 2e6f 253e 1dec 843e 28d3 86be
00000070: 9f17 233e 7155 01be 8ee0 243e 2826 e4b6
0.15439962 0.068071805 0.1435785 -0.1580851 0.121704265 0.12244764 0.008647271 0.20324561
0.078858465 0.14206798 0.053638928 0.044679005 0.048864704 0.20450139 0.117823035 -0.11884142
0.05742522 0.16682011 -0.21255825 -0.13276343 0.061484065 -0.034403324 -0.09042596 -0.115739875
0.065284856 0.16155693 0.2596139 -0.26332974 0.1592698 -0.1263025 0.16101286 -6.7993715e-06

policy_mean_net.0.weight f4 [1, 32]
00000000: 21eb b03d 786b 37bd f053 f1bd b198 543e
00000010: c1d7 e8bd cf32 6e3e 873e b93d c67b fc3d
00000020: 4ede 153c 3975 823d 5874 f1bd 82fe 23be
00000030: 6bc1 66be 6733 96be 7e16 593e 9441 693e
00000040: c9de 793e d673 053d 11d3 ab3d 0846 0b3e
00000050: 8e97 b3bd e45a 1a3e 1c54 3dbe 09fb bdbd
00000060: 93ff 073e 178e 2b3e f140 2a3d 1782 663e
00000070: d930 5a3c d9e8 d63b 733d b9bb 57f9 2b3d
0.08638597 -0.044780225 -0.11783588 0.20761372 -0.11369277 0.2326157 0.09045129 0.123282954
0.00914724 0.06370015 -0.11789769 -0.16015056 -0.2253472 -0.29336092 0.21199986 0.22778922
0.24401392 0.032581173 0.08389867 0.13600934 -0.08769141 0.15073735 -0.18489116 -0.09276397
0.13281088 0.16753422 0.04156584 0.22510563 0.01331731 0.0065585193 -0.0056530773 0.041985836

policy_stddev_net.0.weight f4 [1, 32]
00000000: b1d8 ff3d aa87 44be 3458 a9bd a6e9 60bd
00000010: be78 04bd 1871 2e3c 6b6b efbd 7d9e dc3d
00000020: 7461 d0bd 424c 3ebc 009f 0fbe a21a cb3c
00000030: 9d07 6fbc a3b3 403d 4ca3 1cbe f3a1 22be
00000040: aea1 d0bd 4fee 25be 79f9 c13c e334 033e
00000050: 7c48 cd3d cba0 dbbd 1b68 d53d 597a 07be
00000060: fc32 e03d a187 bcbc 3ed8 92bd 0540 6f3d
00000070: 8203 ba3d 27f7 e0bd eede 133e 5742 2d3e
0.124925025 -0.19192377 -0.082687765 -0.054910325 -0.03234171 0.010647081 -0.1169041 0.10772417
-0.10174838 -0.011614861 -0.14025497 0.024792973 -0.0145892175 0.047046315 -0.15296668 -0.15882091
-0.10187088 -0.16204189 0.023678528 0.12813143 0.10023591 -0.10724028 0.10420247 -0.13230266
0.109472245 -0.023013892 -0.07170151 0.058410663 0.090827 -0.109846406 0.1444051 0.16919838
