lab3/src/best_model.pt (torch, 6180 bytes, 6 tensors)

shared_net.0.weight f4 [16, 4]
0	0xbeefb6f7	-0.4681928
1	0xbf389807	-0.72106975
2	0xbe636f5b	-0.22210447
3	0xbf130c7e	-0.57440937
4	0xbae19fd7	-0.0017213774
5	0xbf337295	-0.70096713
6	0x3e8c1aae	0.27364105
7	0x3e2905a4	0.16506058
8	0x3dbf5052	0.09341492
9	0x3f3332ad	0.699992
10	0xbc6bc883	-0.014391067
11	0x3ec432c5	0.38319984
12	0xbeafa673	-0.34306678
13	0x3de19d43	0.110163234
14	0xbedabfd1	-0.4272447
15	0x3cff0ee5	0.031135032
16	0xbea6bb44	-0.32564747
17	0x3f446c68	0.76727915
18	0x3eae680c	0.34063756
19	0x3ef4ce04	0.47813427
20	0x3e1f04cf	0.15529178
21	0xbf178e30	-0.59201336
22	0x3ed0de09	0.407944
23	0xbf15e6ef	-0.585555
24	0xbe9df20d	-0.30848733
25	0xbf0dfcae	-0.55463684
26	0xbe4adf5c	-0.19811767
27	0x3d3904a8	0.045170456
28	0xbec4d758	-0.38445544
29	0xbdb3a37f	-0.08771419
30	0xbe783f73	-0.24242954
31	0x3ecf9e61	0.4055052
32	0xbec8a1a4	-0.39185822
33	0xbf2dadeb	-0.678435
34	0xbef9e5fe	-0.48808283
35	0xbe8515b1	-0.25993112
36	0xbdf45a00	-0.11931229
37	0xbf5332e4	-0.8249953
38	0xbe7899a2	-0.24277356
39	0xbdbaa3ae	-0.09113251
40	0x3db31dca	0.08745916
41	0xbec4ab83	-0.38412103
42	0xbda301fc	-0.07959363
43	0xbed37a69	-0.4130433
44	0x3e4c26f3	0.19936733
45	0xbe8b8233	-0.27247772
46	0xbec3efee	-0.3826899
47	0xbdd8dc78	-0.10588926
48	0xbd7dc17d	-0.061952103
49	0x3e20ea34	0.15714341
50	0x3e81179d	0.25213328
51	0xbe9c746d	-0.30557576
52	0xbd973076	-0.0738229
53	0x3f41dcda	0.7572762
54	0x3ea64d88	0.32481027
55	0x3e68f461	0.22749473
56	0xbe2fa45f	-0.17152546
57	0x3e2f8a13	0.17142515
58	0x3e4a70fc	0.19769663
59	0xbea1d0d9	-0.3160465
60	0x3e96883f	0.29400823
61	0xbd1a3b05	-0.03765394
62	0xbec83d04	-0.3910905
63	0xbe4154c0	-0.18879986

shared_net.0.bias f4 [16]
0	0xbea40337	-0.32033703
1	0xbed01590	-0.4064145
2	0x3cc1f3d2	0.023675833
3	0xbedf2424	-0.4358226
4	0x3e80baa2	0.2514239
5	0x3e6e833e	0.23292252
6	0x3ded984a	0.116013125
7	0x3ec9ca30	0.3941207
8	0xbe28dd6a	-0.16490713
9	0xbc32b5dc	-0.0109076165
10	0x3e8d2739	0.27568987
11	0x3e7cacf4	0.24675351
12	0x3d7caec0	0.061690092
13	0x3eb2c0e3	0.34912786
14	0x3e38073f	0.17971514
15	0x3ed01fb7	0.40649197

shared_net.2.weight f4 [32, 16]
0	0xbe6657f6	-0.22494492
1	0xbe0cbb8e	-0.13743421
2	0xbde11569	-0.10990412
3	0x3da920c6	0.08258204
4	0x3e6395ac	0.22225064
5	0xbe9aac0b	-0.30209383
6	0xbb8d87b5	-0.004319156
7	0xbe9104d7	-0.28324005
8	0xbe46c396	-0.19410548
9	0xbe762bf7	-0.24040209
10	0xbe5e762b	-0.21724765
11	0xbcf7123a	-0.030160058
12	0xbe773593	-0.2414153
13	0x3e571362	0.21003488
14	0xbcf3702d	-0.029716576
15	0xbc143df5	-0.009047975
16	0xbe4baf67	-0.1989113
17	0x3d5241ca	0.051332273
18	0xbddb9741	-0.10722209
19	0xbe4efe6c	-0.20214242
20	0x3da4f5ca	0.08054693
21	0x3e33d057	0.17559944
22	0x3dce9831	0.10087622
23	0xbca021d4	-0.01954738
24	0x3cc4acf5	0.024008254
25	0xbce79b3b	-0.028272262
26	0x3c9ce29e	0.019151028
27	0xbbd6a21e	-0.0065500876
28	0x3e40186a	0.18759313
29	0xbddaa505	-0.10676006
30	0x3e3a1ae8	0.18174326
31	0x3e5e2f2d	0.21697684
32	0xbdace63a	-0.0844235
33	0xbe7c871a	-0.24660912
34	0xbe9e416d	-0.3090929
35	0xbe830f9b	-0.25597844
36	0x3dfa6087	0.122254424
37	0x3ea51cfd	0.3224868
38	0x3cdddbb8	0.02708231
39	0x3e74a142	0.2388964
40	0x3e303ac3	0.17209916
41	0xbd9f109d	-0.077668406
42	0xbdaafe54	-0.083492905
43	0xbd157125	-0.036484856
44	0xbe4c6a17	-0.19962345
45	0xbe12a22c	-0.14319676
46	0x3e11adf6	0.14226517
47	0x3da6b90b	0.08140763
48	0xbe33d61d	-0.17562146
49	0xbc43eb08	-0.011957891
50	0x3ec55712	0.38542992
51	0xbd228d2c	-0.039685413
52	0x3e889d00	0.26682281
53	0xbe0295a9	-0.12752403
54	0xbe668d23	-0.22514777
55	0x3dad592e	0.08464275
56	0xbd1a9b36	-0.037745677
57	0xbd2a1386	-0.041522525
58	0xbe9dc134	-0.30811465
59	0xbd7b4036	-0.061340533
60	0xbe81be3c	-0.2534045
61	0x3de73f36	0.112913534
62	0xbc1b871b	-0.009492661
63	0x3d8b42c6	0.067998454
64	0x3cd87bdf	0.026426254
65	0xbd5191d5	-0.051164467
66	0xbdbe589c	-0.09294245
67	0xbe70d733	-0.23519592
68	0xb9ddff21	-0.0004234249
69	0x3ea9cf0f	0.33165786
70	0xbe01dbb7	-0.12681471
71	0x3e648a18	0.22318304
72	0x3e3a9c98	0.18223798
73	0x3edc9923	0.43085584
74	0x3eb057a0	0.34441853
75	0xbe21a761	-0.15786506
76	0x3e5ef7ab	0.21774165
77	0xbd9df51f	-0.07712769
78	0x3de9b069	0.11410601
79	0xbd1c9e24	-0.038236752
80	0xbea16ab6	-0.31526726
81	0x3d612ab7	0.054972377
82	0x3e6f8925	0.2339216
83	0x3e0b5ec8	0.13610375
84	0xbda5c78b	-0.080947004
85	0xbea980af	-0.3310599
86	0x3d5cea1c	0.0539342
87	0xbd1e5610	-0.038656294
88	0xbe09a292	-0.13440922
89	0xbe7f640b	-0.24940507
90	0xbdf70f7f	-0.120635025
91	0xbd23a9b4	-0.039956763
92	0xbe84fa05	-0.25972
93	0x3e284012	0.16430691
94	0xbcc066ff	-0.023486612
95	0x3d27817b	0.040894967
96	0xbe79e010	-0.2440188
97	0x3dff59f2	0.124683276
98	0x3e8c8d4e	0.27451557
99	0xbe39f6b3	-0.18160515
100	0x3eb1abe4	0.34701455
101	0x3ca48ad6	0.020085733
102	0x3e5416fe	0.20711896
103	0x3e8d9df6	0.27659577
104	0xbdb009bf	-0.08595609
105	0xbde6b024	-0.11264065
106	0x3d9bc0e0	0.07605147
107	0x3e2e7a2b	0.17038791
108	0xbe579fd8	-0.2105707
109	0x3dd146ef	0.10218608
110	0x3e853dd7	0.26023743
111	0xbe154e78	-0.14580715
112	0xbe49081b	-0.19631998
113	0x3dbfbc90	0.09362137
114	0x3e6b8dc3	0.23003297
115	0x3e4410cd	0.19147034
116	0x3d9b05e0	0.0756948
117	0xbd278309	-0.04089645
118	0xbe47f9e8	-0.19528925
119	0x3e4f8896	0.20266947
120	0xbe727bdf	-0.23680066
121	0xbc2155b0	-0.00984709
122	0x3ae69baa	0.0017593999
123	0x3df3d65e	0.11906122
124	0x3e36c26c	0.17847604
125	0xbdaa776c	-0.08323559
126	0x3dd922c4	0.10602334
127	0xbe8ca145	-0.2746679
128	0x3dbbeba8	0.09175807
129	0xbe728dce	-0.23686907
130	0xbe0a4069	-0.13501133
131	0xbe7b981e	-0.24569747
132	0x3eac6687	0.33671972
133	0x3dbe3d8f	0.09289085
134	0xbdc6ec2f	-0.09713017
135	0xbdca55c8	-0.09879643
136	0xbd42543c	-0.047443613
137	0xbd85be9c	-0.065304965
138	0x3dfd9035	0.12381021
139	0x3e69c842	0.22830299
140	0xbe15f187	-0.14642917
141	0xbe06399b	-0.13107912
142	0x3d8b509d	0.06802485
143	0x3e776a59	0.24161662
144	0x3cb2fedd	0.021850044
145	0x3c8d8362	0.017274562
146	0x3dd38503	0.10328104
147	0x3db2bb6d	0.08727155
148	0x3e9f91e2	0.31165987
149	0xbe9b316c	-0.30311143
150	0xbd9e6070	-0.07733238
151	0x3e5d8805	0.21633919
152	0x3d75be73	0.05999608
153	0x3d43d82e	0.047813587
154	0xbc7c1faa	-0.015388409
155	0x3e2d52c6	0.16926107
156	0xbe8c96f0	-0.27458906
157	0x3e02166b	0.12703864
158	0xbc588a11	-0.013216511
159	0x3dd89e38	0.10577053
160	0x3d84d222	0.06485392
161	0x3db6f96a	0.08934291
162	0xbea427be	-0.3206157
163	0xbdaf0720	-0.08546281
164	0x3d9ba947	0.076006465
165	0x3e7557f8	0.23959339
166	0x3e18f6e3	0.1493793
167	0x3e5a87be	0.21340844
168	0xbd21298d	-0.039346267
169	0x3e095802	0.13412479
170	0x3eb24d03	0.3482438
171	0x3e8486c1	0.2588406
172	0x3e4e582e	0.20150825
173	0xbe425f71	-0.1898172
174	0x3d6a3ec2	0.057188757
175	0xbe031648	-0.12801468
176	0x3eb44c92	0.3521467
177	0x3e504475	0.20338614
178	0xbcadf5b5	-0.021235326
179	0xbe0ff61c	-0.14058727
180	0xbe8ff99f	-0.28120133
181	0xbda1539e	-0.07877277
182	0x3e087f1a	0.13329735
183	0x3e2e1ea0	0.1700387
184	0x3de1a45f	0.110176794
185	0xbd4ee332	-0.05050964
186	0x3d45fa48	0.04833439
187	0x3d9cb22c	0.07651171
188	0x3d3223c2	0.043491133
189	0x3d139847	0.036033895
190	0x3dea1b3f	0.11430978
191	0xbce8c6e9	-0.02841516
192	0xbd575a4d	-0.052576352
193	0xbcd07768	-0.025447562
194	0xbe90012d	-0.28125897
195	0xbe4ed9cd	-0.20200272
196	0xbe8c3902	-0.27387244
197	0xbe07a578	-0.13246715
198	0x3da5edf1	0.08102024
199	0xbdb259d6	-0.08708541
200	0xbaab13be	-0.0013052148
201	0x3e6d3b33	0.23167114
202	0x3dd9798e	0.10618888
203	0xbdd4ea57	-0.10396259
204	0x3e1402d9	0.14454211
205	0xbea67f91	-0.325192
206	0x3d076819	0.03305826
207	0x3e8098e4	0.25116646
208	0x3ea9ba7c	0.3315009
209	0x3e0ebc63	0.13939051
210	0xbe54c64d	-0.2077877
211	0x3d9489d2	0.0725285
212	0xbea065c1	-0.31327632
213	0x3d951f4a	0.072813585
214	0x3e822cb9	0.25424746
215	0xbe0c49a3	-0.13699965
216	0xbdb35a1a	-0.0875742
217	0x3ec4d94a	0.38447028
218	0x3e491f3d	0.19640823
219	0x3e5a28b3	0.21304588
220	0xbd584def	-0.0528087
221	0xbe4f82f5	-0.202648
222	0xbb9d528b	-0.0048010997
223	0xbd2968a4	-0.04135956
224	0xbdc3be81	-0.0955782
225	0xbdae9921	-0.08525301
226	0x3d981aa5	0.07426957
227	0xbe545079	-0.20733823
228	0x3d4425e2	0.04788769
229	0xbe690870	-0.22757125
230	0xbc144ffc	-0.009052273
231	0x3e43e399	0.1912979
232	0xbc9450e9	-0.018104987
233	0xbdf94e12	-0.12173094
234	0xbe74bf14	-0.23901016
235	0xbd4e518c	-0.050370738
236	0xbd0994e2	-0.03358925
237	0x3e9104d1	0.28323987
238	0x3cc9a02a	0.024612505
239	0x3e137c5b	0.14402907
240	0x3db3663f	0.08759736
241	0xbd9be829	-0.076126404
242	0xbd795783	-0.060874473
243	0xbe74d563	-0.23909526
244	0x3eac7a0a	0.33686858
245	0xbe150023	-0.14550833
246	0xbbf5f5f8	-0.0075061284
247	0x3e11340b	0.14180009
248	0xbe16ab88	-0.14713871
249	0xbecaa210	-0.3957677
250	0xbd93493b	-0.07191702
251	0x3d458052	0.04821808
252	0xbdecb59f	-0.11558079
253	0x3dfe50cd	0.12417755
254	0x3d29cdcd	0.041456033
255	0x3de33f7e	0.110960945

shared_net.2.bias f4 [32]
0	0x3df2cb81	0.118552215
1	0x3de1338a	0.109961584
2	0x3e34f6c2	0.17672256
3	0xbe19c319	-0.1501583
4	0x3e07804f	0.1323254
5	0x3ddedc94	0.10881916
6	0x3d03138c	0.032001063
7	0x3e2cbdb8	0.16869247
8	0x3dfdc710	0.12391484
9	0x3e0e9c2e	0.13926765
10	0x3db1bb6a	0.086783245
11	0x3d267c59	0.04064593
12	0x3d6e1f3d	0.05813526
13	0x3e4f8d0c	0.20268649
14	0x3e070d1b	0.13188593
15	0xbdcac01f	-0.098999254
16	0x3d8c75c4	0.068583995
17	0x3e4bd151	0.19904067
18	0xbe636e6a	-0.22210088
19	0xbe2cb2f7	-0.16865145
20	0x3d196db0	0.03745812
21	0xbc8b44d7	-0.017000599
22	0xbdd53676	-0.10410778
23	0xbd943a80	-0.072377205
24	0x3d0f9172	0.035050817
25	0x3e235195	0.1594909
26	0x3e8d990b	0.27655825
27	0xbe93827b	-0.28810486
28	0x3e02e54c	0.12782782
29	0xbdb0e4e7	-0.0863741
30	0x3df34732	0.11878814
31	0xbd2f6bbd	-0.042827357

policy_mean_net.0.weight f4 [1, 32]
0	0x3e197c59	0.14988841
1	0xbd59a820	-0.053138852
2	0xbe059f59	-0.13049068
3	0x3e824d9d	0.2544984
4	0xbe18a47b	-0.14906494
5	0x3e8883db	0.26663098
6	0x3dd0e61d	0.102001406
7	0x3e274cae	0.16337845
8	0xbc45f61f	-0.012082606
9	0x3d8dbf82	0.06921293
10	0xbe1bc6c3	-0.1521254
11	0xbe6baa2c	-0.23014134
12	0xbe8a4d79	-0.27012232
13	0xbeaede22	-0.3415385
14	0x3e6c3d78	0.23070323
15	0x3e7ca30b	0.24671571
16	0x3e98d5cf	0.29850623
17	0x3d795f3f	0.06088185
18	0x3e07491b	0.13211481
19	0x3e21c84d	0.15799065
20	0xbd983fd2	-0.07434048
21	0x3e262c69	0.16227879
22	0xbe55cd57	-0.20879112
23	0xbc4cd57e	-0.012502072
24	0x3e5cec3f	0.21574496
25	0x3e51bd57	0.20482384
26	0x3d8e2d47	0.0694223
27	0x3e8a1c7b	0.26974854
28	0xbd5bb6fc	-0.053641304
29	0x3c5f16b9	0.013616257
30	0xbc0b9ddd	-0.008521524
31	0x3d2b7f13	0.041869234

policy_stddev_net.0.weight f4 [1, 32]
0	0x3dc8305c	0.09774849
1	0xbe75d172	-0.24005678
2	0xbe01013d	-0.12598129
3	0xbd062895	-0.032753546
4	0xbd9a8472	-0.07544793
5	0x3bcb6a64	0.006207751
6	0xbe215ffe	-0.15759274
7	0x3d92672e	0.07148586
8	0xbe134edc	-0.14385551
9	0xbd11e501	-0.035618786
10	0xbe3e2245	-0.1856776
11	0x3d591528	0.05299869
12	0xbc3c9ec6	-0.011512464
13	0x3d818f8a	0.06326206
14	0xbe439218	-0.19098699
15	0xbe5a2f73	-0.21307163
16	0xbda001ca	-0.07812841
17	0xbe53cac5	-0.20682819
18	0x3d81815d	0.06323502
19	0x3e342061	0.17590477
20	0x3d9b3b58	0.07579678
21	0xbe174882	-0.14773753
22	0x3e1291b7	0.14313398
23	0xbdf43fe9	-0.119262524
24	0x3dd8372c	0.10557398
25	0xbd4f0963	-0.05054606
26	0xbdea252d	-0.11432872
27	0x3d74c8b1	0.059761707
28	0x3d7878cc	0.060662076
29	0xbd92e514	-0.071725994
30	0x3e3a19d8	0.18173921
31	0x3e430f8b	0.19048898
